models/baseline.pth (torch, 21122 bytes, 12 tensors)

encoder.0.weight f4 [16, 1, 5]
-0.38222447 0.10903517 0.7467611 0.22547439 -0.7168255 0.44788677 -0.2272985 0.43950996
0.045460816 0.3910309 0.6175311 0.016472563 -0.27174607 0.1787907 -0.78080165 -1.0135034
-0.20307317 0.71724105 -0.10190692 0.39508462 -0.30789763 0.06079216 -0.11878068 0.06579363
-0.26181552 0.40910113 -0.1332867 0.25187796 0.20136939 0.45326966 0.6861423 -0.24683797
-0.060530484 -0.023754587 -0.23027447 0.12417059 -0.1146174 -0.31198066 1.1608726 -0.8354539
0.18266664 -0.2699257 -0.33482125 0.15480132 0.5991972 0.5628555 -0.26917127 -0.7534901
0.077376924 0.17840134 -0.6015569 0.24489331 -0.1930295 0.15905526 0.61826056 -0.08730502
0.622834 0.2601046 -0.44382668 0.25940102 0.90417075 -0.46199062 -0.10392549 -0.08109489
-0.14209789 -0.5110965 0.07890554 -0.22451791 0.09003883 -0.51077765 -0.601416 0.0010540758
-0.30039024 0.24878564 -0.39456794 0.41606393 -0.21190703 0.44690388 0.2185386 -0.69028527
00000000: edb2 c3be d54d df3d bc2b 3f3f c2e2 663e
00000010: e081 37bf 6a51 e53e f0c0 68be 7307 e13e
00000020: 1f35 3a3d 3435 c83e 8516 1e3f 78f1 863c
00000030: 4d22 8bbe e914 373e 9ee2 47bf 7bba 81bf
00000040: 6af2 4fbe 1c9d 373f 93b4 d0bd 8848 ca3e
00000050: c2a4 9dbe 3301 793d 4943 f3bd d0be 863d
00000060: af0c 86be b475 d13e 4f7c 08be 26f6 803e
00000070: c733 4e3e f612 e83e 06a7 2f3f 18c3 7cbe
00000080: d0ee 77bd fb98 c2bc 12cd 6bbe 264d fe3d
00000090: 87bc eabd eebb 9fbe 7997 943f 4fe0 55bf
000000a0: f70c 3b3e b433 8abe b16d abbe 3d84 1e3e
000000b0: fd64 193f 4c17 103f d1d0 89be bae4 40bf
000000c0: cb77 9e3d d7ae 363e a2ff 19bf 50c5 7a3e
000000d0: 86a9 45be 62df 223e 5346 1e3f f9cc b2bd
000000e0: 0d72 1f3f 6e2c 853e 403d e3be 36d0 843e
000000f0: bc77 673f 098a ecbe e3d6 d4bd 1415 a6bd
00000100: 1c82 11be 38d7 02bf 3a99 a13d 06e8 65be
00000110: 4766 b83d 53c2 02bf 66f6 19bf ea28 8a3a
00000120: c0cc 99be aac1 7e3e cf04 cabe 5506 d53e
00000130: 28fe 58be 96d0 e43e 95c8 5f3e 89b6 30bf

encoder.0.bias f4 [16]
0.09113499 0.02295619 -0.035718407 -0.019532328 -0.11494952 0.21198162 0.17183445 0.07802059
0.03731991 -0.02625213 0.037204348 -0.07194861 0.04447952 -0.007949727 -0.13745543 0.09438653
00000000: fba4 ba3d 9f0e bc3c 774d 12bd 4302 a0bc
00000010: a76a ebbd b611 593e 5ff5 2f3e 42c9 9f3d
00000020: c3dc 183d b50e d7bc 9663 183d cb59 93bd
00000030: 2830 363d 923f 02bc 1ec1 0cbe ba4d c13d

encoder.2.weight f4 [16, 16, 5]
0.062633775 0.0025411018 -0.08016108 -0.064241216 0.016997432 -0.019455863 -0.075696625 0.08840234
0.08436235 0.10972128 -0.062213987 -0.13119347 0.11344269 0.36734423 0.20963344 -0.3044504
0.112307645 0.18467775 0.24746855 0.25131384 -0.27761334 -0.2381417 0.0032103972 0.047404695
0.30391797 -0.078708425 -0.04925857 0.12365805 -0.00490782 0.19905807 0.14007849 -0.005943712
-0.0019906987 0.09387939 -0.06522464 0.102277234 -0.08163468 -0.024337918 -0.043631695 -0.077224165
0.016440926 0.02011975 -0.006270158 0.14019379 0.38341367 -0.32802328 -0.22631054 0.032265816
0.08855585 0.25279567 -0.30137604 -0.2326273 -0.21752965 -0.058628097 0.3132097 -0.19445746
-0.14987361 0.026391251 0.1256909 0.16065195 -0.044921268 -0.032384608 -0.16354999 0.25522318
-0.054331813 -0.1439248 -0.0018117714 0.058484055 0.091833994 0.081919596 -0.105125286 -0.0033646792
0.14230828 0.2297863 0.41026774 0.116241336 -0.037496954 0.005731534 -0.06502156 0.060294516
0.053275537 -0.050283432 0.09978745 0.012424687 -0.12832706 0.21773206 -0.015846157 0.12032726
0.10407182 0.13564086 -0.081618905 0.13358295 0.08789412 0.12727247 0.07249158 0.08892853
0.09993763 0.19705093 -0.051599614 0.4493694 -0.8511678 -0.49197072 -0.101647556 0.5363715
-0.30242229 0.18850447 0.1766392 0.20126836 0.14094631 0.09684632 0.0811573 0.016610298
0.0020935931 -0.0554139 0.115265325 0.064024225 0.19434589 -0.11157311 -0.035923976 -0.04979079
0.14205027 0.17256689 0.13610578 0.0635427 0.19444059 0.34832162 0.17876156 -0.45903537
-0.0888426 0.3313473 0.33809048 0.13395771 -0.031058291 0.08524934 0.053248085 -0.07468576
0.17146108 0.08653834 -0.016064273 0.10173679 -0.3269425 -0.13526234 -0.088897236 -0.11494226
0.4524267 -0.12562084 0.023868212 -0.0005281018 -0.0752085 -0.021174653 0.26411435 0.30922103
-0.11206314 0.043010134 -0.06428706 -0.12424766 0.05449793 0.13515028 0.090171926 0.061969742
-0.108302765 0.12593856 -0.019478196 0.08548626 0.14285472 0.17060547 -0.08242163 -0.024571555
-0.050667472 -0.053897887 0.37535957 -0.10777763 -0.06805093 0.050603986 0.27099288 -0.34916922
-0.21598572 -0.06905249 0.3995114 0.33563334 -0.052709702 -0.3322124 -0.13161501 -0.27866316
-0.0680946 0.08407445 0.047800165 0.08011455 0.075917035 -0.03321575 0.19090235 -0.027852047
0.01116225 0.06862674 0.044912834 0.088508375 0.060517833 0.04357394 0.1049492 0.0562104
0.13884361 0.024902925 -0.073775806 0.002039302 0.0017215249 -0.2694262 0.04405718 -0.03724364
-0.006049011 0.09725442 -0.25521857 0.08057804 0.08306203 0.06982797 0.05586991 -0.14644782
-0.22829248 -0.01054772 0.02699355 -0.07649723 0.5374985 0.042299673 -0.08073001 0.15025422
0.07345001 -0.16619693 -0.12237692 0.023343094 -0.12290657 -0.065821335 -0.07402871 -0.07446332
-0.08169356 -0.077981025 0.012356185 0.091768935 0.05877081 0.16084048 0.020749535 0.0013668583
-0.048721354 0.090784654 0.096596226 0.1849541 -0.44740298 0.043145232 -0.12946896 -0.0028572378
-0.13200891 0.28316644 0.12897849 0.0050819195 0.09530247 0.16994312 -0.23978886 -0.09299078
00000000: 2346 803d 9d88 263b 7e2b a4bd e690 83bd
00000010: 333e 8b3c e761 9fbc d506 9bbd 490c b53d
00000020: 2bc6 ac3d 8db5 e03d 18d4 7ebd 9557 06be
00000030: a454 e83d 8b14 bc3e 26aa 563e ece0 9bbe
00000040: 8d01 e63d 2a1c 3d3e 6568 7d3e 35ac 803e
00000050: 5623 8ebe 6bdb 73be 8765 523b 6d2b 423d
00000060: 239b 9b3e e231 a1bd 5bc3 49bd 6f40 fd3d
00000070: c7d1 a0bb e1d5 4b3e bc70 0f3e 78c3 c2bb
00000080: 6276 02bb d643 c03d 7f94 85bd ba76 d13d
00000090: 1530 a7bd 5060 c7bc 26b7 32bd b427 9ebd
000000a0: 1faf 863c 2dd2 a43c e675 cdbb f68e 0f3e
000000b0: cc4e c43e abf2 a7be f3bd 67be 2929 043d
000000c0: c55c b53d 6f6e 813e f64d 9abe da35 6ebe
000000d0: 18c0 5ebe 0424 70bd 065d a03e db1f 47be
000000e0: 7878 19be 7732 d83c 1eb5 003e f281 243e
000000f0: 5dff 37bd b9a5 04bd a679 27be 9dac 823e
00000100: 098b 5ebd 0661 13be f678 edba fa8c 6f3d
00000110: 7613 bc3d 76c5 a73d ed4b d7bd f381 5cbb
00000120: 43b9 113e 1a4d 6b3e 9d0e d23e f00f ee3d
00000130: 6896 19bd 98cf bb3b 062a 85bd 62f7 763d
00000140: 7337 5a3d 00f6 4dbd 5d5d cc3d ea90 4b3c
00000150: 2b68 03be 27f5 5e3e cdcf 81bc 236e f63d
00000160: 9b23 d53d 70e5 0a3e d027 a7bd f8c9 083e
00000170: d501 b43d b753 023e 7776 943d 2920 b63d
00000180: 1aac cc3d b8c7 493e 1e5a 53bd bf13 e63e
00000190: 22e6 59bf 96e3 fbbe 982c d0bd a54f 093f
000001a0: 18d7 9abe 5107 413e e8e0 343e 4b19 4e3e
000001b0: 3b54 103e 5d57 c63d cc35 a63d 5212 883c
000001c0: aa34 093b b0f9 62bd 3a10 ec3d 221f 833d
000001d0: 9c02 473e 7180 e4bd 0525 13bd 6df1 4bbd
000001e0: a075 113e 60b5 303e 505f 0b3e ad22 823d
000001f0: 6f1b 473e 3657 b23e 450d 373e af06 ebbe
00000200: 1cf3 b5bd 5aa6 a93e 321a ad3e 362c 093e
00000210: f56d febc 3597 ae3d aa1a 5a3d d9f4 98bd
00000220: 7e93 2f3e 033b b13d 3999 83bc 615b d03d
00000230: 0265 a7be 3682 0abe c10f b6bd d966 ebbd
00000240: 79a4 e73e c0a2 00be 4587 c33c 5070 0aba
00000250: ea06 9abd 7776 adbc ff39 873e 3852 9e3e
00000260: 5c81 e5bd 652b 303d efa8 83bd 8f75 febd
00000270: 3939 5f3d d664 0a3e 0fac b83d fcd3 7d3d
00000280: d7cd ddbd 0af6 003e bd90 9fbc 6c13 af3d
00000290: 8248 123e 33b3 2e3e accc a8bd 494a c9bc
000002a0: b288 4fbd 08c4 5cbd 212f c03e 85ba dcbd
000002b0: 495e 8bbd 2046 4f3d 94bf 8a3e 4fc6 b2be
000002c0: 5c2b 5dbe 646b 8dbd c28c cc3e 22d8 ab3e
000002d0: 21e6 57bd be17 aabe 16c6 06be f0ac 8ebe
000002e0: 2f75 8bbd 3a2f ac3d 1bca 433d 1913 a43d
000002f0: 647a 9b3d 3d0d 08bd e87b 433e fa29 e4bc
00000300: dfe1 363c 2d8c 8c3d 85f6 373d e143 b53d
00000310: 8ce1 773d 967a 323d 9bef d63d e03c 663d
00000320: 052d 0e3e 3801 cc3c c517 97bd cfa5 053b
00000330: caa4 e13a 3bf2 89be 4d75 343d c98c 18bd
00000340: c836 c6bb 532d c73d 02ac 82be 1906 a53d
00000350: 6d1c aa3d f701 8f3d d9d7 643d 6bf6 15be
00000360: 81c5 69be 58d0 2cbc 9421 dd3c 94aa 9cbd
00000370: 8099 093f 6c42 2d3d c755 a5bd 3edc 193e
00000380: f56c 963d 872f 2abe c0a0 fabd 043a bf3c
00000390: 71b6 fbbd 56cd 86bd 5d9c 97bd 3a80 98bd
000003a0: f44e a7bd 84b4 9fbd 9971 4a3c 5af1 bb3d
000003b0: a9b9 703d 5eb3 243e eefa a93c 2728 b33a
000003c0: 0b90 47bd 4eed b93d 3ed4 c53d 9c64 3d3e
000003d0: 0112 e5be 0eb9 303d 8393 04be 7f40 3bbb
000003e0: 582d 07be 31fb 903e f012 043e 3b86 a63b
000003f0: f12d c33d 9205 2e3e 368b 75be f371 bebd

encoder.2.bias f4 [16]
0.0513451 -0.05113507 0.07257141 0.12950137 -0.0722861 0.06694485 0.06772243 0.056031477
0.017078886 -0.059859436 0.01474207 0.0489515 -0.10932897 0.036312047 0.008703797 -0.05139002
00000000: 3d4f 523d 0273 51bd 52a0 943d 029c 043e
00000010: bc0a 94bd 621a 893d 0fb2 8a3d 4381 653d
00000020: 05e9 8b3c 2b2f 75bd b988 713c 5e81 483d
00000030: dee7 dfbd f1bb 143d 5f9a 0e3c 577e 52bd

encoder.4.weight f4 [16, 16, 5]
-0.064548336 0.105693154 0.078616716 0.08108328 0.12235051 0.050808787 0.07285047 -0.04932856
0.102908075 0.0404496 -0.02099984 0.052194834 -0.026660262 0.020042788 0.0974544 0.050003774
0.09306004 0.03337572 0.044558223 0.3823411 -0.18507272 -0.004981691 -0.033829175 -0.13807526
-0.4005112 0.05975004 0.0020341757 -0.098858476 -0.15442143 -0.104543254 0.12162662 0.26557294
-0.14484449 0.12057525 0.14803861 0.13538982 0.10119378 0.07844274 -0.07774358 -0.04314323
-0.11112927 -0.0043444964 0.18722543 -0.028372897 -0.019339781 -0.09588502 -0.17096224 -0.16660263
-0.06695211 -0.013243047 0.13872296 0.051315088 0.06831464 -0.0015904793 0.03556915 0.052557517
-0.035790548 -0.036646612 -0.076028444 -0.13079597 -0.4164455 0.16068962 -0.10629601 0.098593846
0.22977899 0.12521036 0.017751534 -0.0054670996 0.05772375 0.045919087 0.10111685 -0.01532902
-0.09466891 0.0072358004 0.04319166 0.030077446 0.0753738 -0.015480059 -0.06383227 -0.0741124
0.049611907 -0.06280251 -0.14675401 -0.12499462 0.0002416704 -0.051134016 -0.020679396 -0.04651112
-0.04267197 -0.13234222 -0.12215425 -0.14528136 -0.02685997 -0.046272192 -0.05883772 -0.087657616
0.07128943 -0.07971109 -0.11401062 -0.019365061 -0.072439164 -0.060743973 -0.09107958 0.0025746208
-0.01126047 0.029560272 -0.021789335 0.058644895 -0.15008973 -0.14648917 -0.110068396 -0.12644199
0.020341184 -0.054114316 -0.09199783 0.028141925 0.02678412 0.005498857 0.0146638155 -0.020402255
0.00050632993 0.003036371 -0.077091604 0.025839167 -0.12674668 0.075416125 0.026159242 -0.05179249
-0.063436136 0.015293553 -0.013832255 -0.039859787 0.010692637 0.013002637 -0.005610256 -0.17713583
0.020509878 -0.09905939 -0.11711683 -0.12320072 0.09051385 -0.069923356 -0.014259408 0.07747584
0.04318023 0.040816173 -0.10140509 -0.0003246728 0.02007137 0.058253393 -0.0051713744 0.021429941
-0.07258009 0.022098077 -0.03665861 -0.024576608 0.07210876 -0.052284826 0.003218833 0.07178803
-0.2305429 -0.12119614 0.052371692 -0.028069654 0.07517826 0.014558838 -0.11131267 0.07638754
-0.027244791 0.018134959 -0.18551782 0.023909764 0.16817565 0.11000592 0.06748348 -0.23755881
0.06575272 0.006351597 0.01035798 -0.24105306 0.506385 0.54376435 0.67699146 0.43575242
0.75927997 -0.13462323 0.014047526 0.031980556 0.00041792946 0.027615113 0.25523663 -0.08533608
-0.0836009 -0.12578715 -0.003403625 0.034552686 -0.05927872 -0.04202784 -0.07254107 0.17011759
0.2291097 0.06938991 0.011384372 -0.07702264 -0.13083406 0.3344669 0.057577655 -0.013379626
0.15607513 0.18454635 -0.2062302 0.024058979 -0.0031544124 -0.007189563 -0.15523507 0.07373547
0.0087062195 0.041478556 0.03482831 0.2757955 -0.2703271 0.11018878 0.14743729 -0.17136611
0.07308506 -0.48824254 -0.1724955 0.07449477 0.019785427 0.07996431 0.12777364 0.29021165
0.11574459 0.066732205 -0.06514843 0.060723502 0.10287656 -0.08203424 -0.021240698 -0.014227449
-0.13872766 0.19377741 0.14514059 0.007964597 -0.039790314 -0.10902396 -0.057872467 0.102488406
0.029015286 0.010007375 -0.34193745 0.14255403 0.014853987 -0.038215384 0.009987169 -0.66632956
00000000: eb31 84bd a775 d83d cd01 a13d fe0e a63d
00000010: e792 fa3d e01c 503d a132 953d be0c 4abd
00000020: 78c1 d23d 7bae 253d db07 acbc 40ca 553d
00000030: 9f66 dabc c630 a43c 2c96 c73d c2d0 4c3d
00000040: 4396 be3d fbb4 083d af82 363d 36c2 c33e
00000050: b483 3dbe 743d a3bb 7690 0abd 9a63 0dbe
00000060: ce0f cdbe 75bc 743d ce4f 053b 5076 cabd
00000070: a720 1ebe c61a d6bd 6117 f93d 2df9 873e
00000080: 1d52 14be 28f0 f63d 6f97 173e a1a3 0a3e
00000090: af3e cf3d 96a6 a03d 0738 9fbd f5b6 30bd
000000a0: be97 e3bd 475c 8ebb 06b8 3f3e 476e e8bc
000000b0: 766e 9ebc 5e5f c4bd ba10 2fbe e199 2abe
000000c0: 301e 89bd 5df9 58bc 640d 0e3e c52f 523d
000000d0: 8ce8 8b3d a177 d0ba f5b0 113d 8d46 573d
000000e0: 1c99 12bd c21a 16bd cdb4 9bbd 61ef 05be
000000f0: 5838 d5be d28b 243e b9b1 d9bd 92eb c93d
00000100: 2f4b 6b3e 2537 003e aa6b 913c 5b25 b3bb
00000110: bd6f 6c3d a715 3c3d 5a16 cf3d 9226 7bbc
00000120: c6e1 c1bd 4b1a ed3b bde9 303d fa64 f63c
00000130: 945d 9a3d 13a0 7dbc 7eba 82bd 3ec8 97bd
00000140: db35 4b3d 9a9e 80bd af46 16be 2efd ffbd
00000150: e768 7d39 e771 51bd d667 a9bc 7282 3ebd
00000160: cec8 2ebd b884 07be 022c fabd a3c4 14be
00000170: 7109 dcbc e987 3dbd d2ff 70bd d685 b3bd
00000180: 3100 923d 913f a3bd 667e e9bd 7aa3 9ebc
00000190: fc5a 94bd acce 78bd ee87 babd f8ba 283b
000001a0: d67d 38bc 6228 f23c 8c7f b2bc a135 703d
000001b0: 1fb1 19be 4201 16be 8a6b e1bd 027a 01be
000001c0: 8ea2 a63c f9a6 5dbd 5c69 bcbd e589 e63c
000001d0: 5f6a db3c c12f b43b 8040 703c a122 a7bc
000001e0: 3abb 043a dafd 463b 34e2 9dbd a9ac d33c
000001f0: e2c9 01be c573 9a3d e84b d63c 5d24 54bd
00000200: ceea 81bd cf91 7a3c afa0 62bc 0444 23bd
00000210: 2c30 2f3c 0309 553c 3dd6 b7bb 1863 35be
00000220: 5504 a83c a6df cabd f3da efbd a950 fcbd
00000230: 535f b93d fa33 8fbd 4ba0 69bc a7ab 9e3d
00000240: c1dd 303d dc2e 273d 79ad cfbd d838 aab9
00000250: b76c a43c 1c9b 6e3d a274 a9bb d88d af3c
00000260: dfa4 94bd 0707 b53c 5727 16bd e254 c9bc
00000270: c2ad 933d 9d28 56bd 0ef3 523b 9a05 933d
00000280: 7013 6cbe af35 f8bd b383 563d 55f2 e5bc
00000290: 0ff7 993d 3188 6e3c e6f7 e3bd 1271 9c3d
000002a0: 7830 dfbc c48f 943c 62f8 3dbe 69de c33c
000002b0: 3d36 2c3e c94a e13d c734 8a3d 9e42 73be
000002c0: 5da9 863d 0f21 d03b 84b4 293c 9dd6 76be
000002d0: 73a2 013f 2434 0b3f 504f 2d3f f11a df3e
000002e0: 2c60 423f acda 09be 9827 663c 0bfe 023d
000002f0: 8b1d db39 1739 e23c 60ae 823e afc4 aebd
00000300: f336 abbd 59ce 00be 5a0f 5fbb 1e87 0d3d
00000310: 3ece 72bd 6225 2cbd 6a90 94bd 4e33 2e3e
00000320: bc9b 6a3e 4c1c 8e3d 8485 3a3c 0cbe 9dbd
00000330: 5df9 05be 3f3f ab3e 8cd6 6b3d 3836 5bbc
00000340: 29d2 1f3e b8f9 3c3e 022e 53be 5617 c53c
00000350: 42ba 4ebb 6d96 ebbb f1f5 1ebe 9f02 973d
00000360: 88a4 0e3c 6be5 293d 21a8 0e3d 1135 8d3e
00000370: 5068 8abe a8aa e13d cdf9 163e 997a 2fbe
00000380: 9fad 953d edfa f9be a9a2 30be b790 983d
00000390: 0c15 a23c 54c4 a33d 18d7 023e 9f96 943e
000003a0: 800b ed3d e5aa 883d 8a6c 85bd 35b9 783d
000003b0: f2b0 d23d 9101 a8bd f900 aebc 3f1a 69bc
000003c0: a00e 0ebe 966d 463e bc9f 143e f17d 023c
000003d0: 2bfb 22bd f447 dfbd ae0b 6dbd 71e5 d13d
000003e0: 77b1 ed3c f9f5 233c 6d12 afbe aff9 113e
000003f0: 235e 733c bc87 1cbd 39a1 233c 9394 2abf

encoder.4.bias f4 [16]
0.028187975 -0.04108745 0.05752367 -0.010621117 0.09160682 0.14910232 0.08337635 0.030339392
0.09384143 0.0788065 0.019103259 -0.053182565 -0.0352461 0.007769498 0.13754068 0.010945113
00000000: 78ea e63c 504b 28bd f19d 6b3d 3204 2ebc
00000010: 5b9c bb3d 47ae 183e 38c1 aa3d 518a f83c
00000020: f02f c03d 4d65 a13d 707e 9c3c f6d5 59bd
00000030: 375e 10bd 4697 fe3b 77d7 0c3e 2253 333c

encoder.6.weight f4 [16, 16, 5]
-0.023327453 -0.043731175 0.07609005 0.066258326 -0.07905084 0.10131193 -0.0849639 -0.013047329
-0.016485954 0.06894055 -0.018858422 0.054293443 -0.0002528356 -0.019430876 -0.034255173 0.03025254
-0.004054418 -0.0029925676 0.08924098 -0.047392383 0.08206689 0.09460162 0.00058899185 0.057701398
-0.004003512 -0.03270954 0.018663816 -0.083613746 -0.06682286 -0.06939291 -0.074540146 -0.040660594
0.012250176 0.012891712 -0.12588593 -0.05912055 -0.07455668 -0.070277065 0.016654167 -0.101694845
-0.056274008 -0.10946651 -0.09000262 -0.0027774777 -0.06871899 0.037929777 0.058196463 0.018984448
-0.11581662 -0.05559533 -0.097544685 -0.1055423 0.024764886 0.09494943 -0.07300475 -0.0401115
-0.08229872 -0.00029685843 -0.09705997 0.053948432 0.03584344 -0.05022593 -0.043521084 0.008102751
-0.0014094594 -0.112033755 0.08452576 -0.068736404 -0.053323384 0.013552552 0.050681453 -0.12754309
-0.107533105 -0.05159141 0.07314261 0.02001089 0.025617782 0.001102953 0.021506015 0.056501772
0.09641496 0.0475473 0.004708298 0.08834563 0.043614775 0.015402377 -0.12497531 0.00045857503
-0.009966774 -0.11137447 0.32130933 0.20648079 0.11025993 0.10495524 0.27976704 -0.2856647
-0.19467889 -0.11874408 -0.08768604 0.05848493 0.09754202 0.0024425487 -0.04567362 -0.018848414
-0.10669503 0.02615248 0.056586437 0.1607807 0.122037545 -0.11312471 0.020802226 0.06309054
0.021295892 -0.09278826 -0.0738234 0.061356757 0.010974815 0.08339612 0.0596337 0.039502844
-0.1558514 -0.056890674 -0.012245828 -0.021340976 0.17886908 -0.07993223 0.11918978 0.17163244
-0.010529069 0.20852336 0.23991945 0.08606218 0.07855368 0.21088704 0.30489245 -0.23597778
-0.086735554 -0.08034494 -0.029553529 -0.09848857 -0.05140196 -0.02119501 -0.009826161 -0.040049244
-0.091200046 -0.0050852825 -0.054053117 0.112575136 0.044129785 0.10275932 0.1853516 0.12288739
0.22903109 -0.038078792 0.18414512 -0.050296083 0.026139699 -0.07405965 -0.0075372295 -0.109725446
-0.018751215 -0.029369522 -0.0045861257 0.108995736 0.066683054 -0.0442991 0.06390174 -0.024092298
0.0823004 -0.13300376 0.36870152 0.1934829 0.45772007 0.26597157 -0.19608416 0.24249159
0.034513917 0.18596177 0.19352716 0.19671309 0.15171133 0.1829376 -0.15991472 0.020471219
-0.23031764 0.06911874 0.050184153 -0.01572613 0.08733673 -0.13568217 -0.11046893 0.011830716
-0.0074284296 -0.11369836 -0.084651016 0.09645464 0.04567664 0.07673162 -0.012086339 -0.022436699
-0.12877864 0.15842423 -0.03892558 0.09927215 -0.28027385 0.043841537 0.019831488 0.044800177
0.0400163 -0.035600133 -0.36594898 -0.43159193 -0.16322641 -0.1572921 -0.32296827 0.052951816
-0.029356882 0.13839519 -0.16156137 0.106826305 -0.011224349 -0.028513625 -0.07927632 0.158922
0.20852998 0.043574184 0.08756792 -0.0051505617 -0.04181785 0.12846711 0.068948604 -0.02056771
0.016243149 0.029530263 0.027140334 -0.068758786 0.030375293 -0.015922604 -0.1393247 -0.1899321
0.04248457 0.027160535 0.10448344 0.15192936 0.120808825 -0.008023037 -0.059083402 0.03700762
0.11877276 -0.06187624 -0.01215251 0.22539943 0.11684392 -0.00040560926 0.030289698 -0.29519024
00000000: 3719 bfbc 761f 33bd 1ad5 9b3d 72b2 873d
00000010: 68e5 a1bd a17c cf3d 8e01 aebd 77c4 55bc
00000020: 8d0d 87bc b430 8d3d fa7c 9abc cd62 5e3d
00000030: 058f 84b9 802d 9fbc 274f 0cbd 2dd4 f73c
00000040: ecda 84bb f41e 44bb fac3 b63d 841e 42bd
00000050: b012 a83d 7fbe c13d 9366 1a3a 4d58 6c3d
00000060: e52f 83bb 70fa 05bd dce4 983c af3d abbd
00000070: 6cda 88bd df1d 8ebd 81a8 98bd b98b 26bd
00000080: f6b4 483c c237 533c 3ee8 00be 6428 72bd
00000090: 2cb1 98bd 6ced 8fbd 526e 883c 6345 d0bd
000000a0: 937f 66bd fa2f e0bd 4b53 b8bd 5806 36bb
000000b0: 8bbc 8cbd 415c 1b3d 6a5f 6e3d 4685 9b3c
000000c0: 4431 edbd eeb7 63bd 82c5 c7bd 9026 d8bd
000000d0: bbdf ca3c d974 c23d 8483 95bd f54b 24bd
000000e0: 3b8c a8bd aaa3 9bb9 61c7 c6bd 08f9 5c3d
000000f0: 92d0 123d b4b9 4dbd 2a43 32bd 67c1 043c
00000100: 9cbd b8ba f471 e5bd d71b ad3d acc5 8cbd
00000110: 9f69 5abd 860b 5e3c 5b97 4f3d a89a 02be
00000120: 513a dcbd 8451 53bd cbcb 953d e1ed a33c
00000130: 62dc d13c f690 903a 622d b03c 676e 673d
00000140: 3575 c53d f5c0 423d 1148 9a3b 8eee b43d
00000150: 68a5 323d 405a 7c3c 0ef3 ffbd e66c f039
00000160: ae4b 23bc 4c18 e4bd a882 a43e b36f 533e
00000170: f5cf e13d c6f2 d63d a03d 8f3e a542 92be
00000180: e759 47be 1930 f3bd bd94 b3bd e58d 6f3d
00000190: 1cc4 c73d 2b13 203b 4314 3bbd fd67 9abc
000001a0: ed82 dabd ba3d d63c 2ec7 673d b2a3 243e
000001b0: d2ee f93d eead e7bd 6e69 aa3c 9d35 813d
000001c0: b974 ae3c c507 bebd b930 97bd 3951 7b3d
000001d0: b6cf 333c 96cb aa3d 7742 743d bccd 213d
000001e0: 8297 1fbe 3206 69bd baa2 48bc 45d3 aebc
000001f0: 7529 373e 82b3 a3bd c519 f43d 6ac0 2f3e
00000200: 1e82 2cbc 2687 553e 72ad 753e 5e41 b03d
00000210: c0e0 a03d c6f2 573e dd1a 9c3e 29a4 71be
00000220: 69a2 b1bd e38b a4bd 3e1a f2bc 60b4 c9bd
00000230: dd8a 52bd 28a1 adbc e8fd 20bc ad0a 24bd
00000240: 17c7 babd 71a2 a6bb cd66 5dbd cb8d e63d
00000250: 6fc1 343d 7a73 d23d cfcc 3d3e 62ac fb3d
00000260: 2087 6a3e 82f8 1bbd 8a90 3c3e 4403 4ebd
00000270: ec22 d63c 96ac 97bd ddfa f6bb bcb7 e0bd
00000280: 269c 99bc 5a98 f0bc 3647 96bb 2839 df3d
00000290: 2091 883d f972 35bd eade 823d 365d c5bc
000002a0: 1d8d a83d 2332 08be 72c6 bc3e 6220 463e
000002b0: 495a ea3e 6d2d 883e 49ca 48be b74f 783e
000002c0: 775e 0d3d c36c 3e3e fc2b 463e 286f 493e
000002d0: 375a 1b3e ff53 3b3e afc0 23be 42b3 a73c
000002e0: 63d8 6bbe 208e 8d3d e68d 4d3d 16d4 80bc
000002f0: 99dd b23d 44f0 0abe 893d e2bd 9fd5 413c
00000300: 2f6a f3bb b0da e8bd 835d adbd 038a c53d
00000310: 6e17 3b3d 7825 9d3d c805 46bc 2bcd b7bc
00000320: 8cde 03be f639 223e 6e70 1fbd 324f cb3d
00000330: 0e80 8fbe 2f93 333d a575 a23c 6480 373d
00000340: 22e8 233d 72d1 11bd aa5d bbbe 9ef9 dcbe
00000350: d324 27be 2e11 21be 195c a5be 01e4 583d
00000360: d87d f0bc 78b7 0d3e 5870 25be c0c7 da3d
00000370: 55e6 37bc 6895 e9bc a05b a2bd 73bc 223e
00000380: e288 553e d87a 323d cf56 b33d 0bc6 a8bb
00000390: 3249 2bbd e28c 033e ed34 8d3d 9d7d a8bc
000003a0: 5a10 853c 73e9 f13c 6855 de3c 68d1 8cbd
000003b0: 9bd5 f83c 1f70 82bc 22ab 0ebe 8f7d 42be
000003c0: 4d04 2e3d c57f de3c 6afb d53d 5f93 1b3e
000003d0: 9e6a f73d 0e73 03bc 7001 72bd 4d95 173d
000003e0: 223f f33d f171 7dbd 521b 47bc 1ccf 663e
000003f0: dd4b ef3d f4a7 d4b9 1a22 f83c 2d23 97be

encoder.6.bias f4 [16]
-0.059919976 0.2445739 -0.087942764 0.21403722 -0.2095683 -0.11636758 -0.07945624 0.12797321
-0.085172035 0.18276702 -0.119044974 -0.10617609 0.01463644 0.022622405 0.11212446 0.023879668
00000000: a66e 75bd 9571 7a3e 561b b4bd 932c 5b3e
00000010: 1399 56be 2052 eebd f4b9 a2bd 690b 033e
00000020: ad6e aebd 4727 3b3e dacd f3bd da72 d9bd
00000030: aecd 6f3c 9f52 b93c 82a1 e53d 4b9f c33c

decoder.0.weight f4 [8, 16, 1]
0.24078874 0.07291627 -0.15780728 0.2678968 -0.30422097 -0.020638421 -0.14029168 0.21121527
-0.10930259 0.077772155 0.0568269 -0.068398334 -0.17485023 0.16810247 -0.0013242522 0.39973244
0.0018998682 -0.086359486 0.29302394 0.22081363 -0.0509738 0.07118323 0.20660323 -0.018500315
-0.30926916 0.08515053 0.11146611 0.5344751 -0.10307607 -0.22936395 -0.1926122 -0.16179639
0.05645391 0.07689298 0.31837755 0.10720524 0.064239256 -0.10568314 0.19415626 -0.09699467
0.15654041 -0.18811062 -0.31091735 -0.33625662 -0.1953023 0.7461538 -0.4899186 -0.3802049
-0.07489037 0.08759813 -0.13358705 0.1363518 -0.1752385 -0.10309388 0.05635621 0.2660715
0.085717276 0.24612568 -0.0899952 0.09665391 -0.22401376 0.11078308 -0.09344191 0.24370691
0.20976026 -0.12200457 -0.18110119 0.1523334 -0.80951434 -0.15204906 -0.38277858 0.2957361
0.27684486 0.04062771 -0.090681784 -0.120247535 -0.093919225 0.10977499 0.29642215 0.44024432
-0.24864408 -0.21887323 -0.09406716 0.22684968 -0.18528888 -0.016366571 0.1991356 -0.040722936
-0.24312592 -0.08148721 -0.1209003 0.21944186 -0.2295033 -0.005408138 -0.21919265 -0.2218954
0.20437095 0.23453924 -0.23704757 0.24825875 -0.5318022 -0.105009705 -0.114051625 0.016503112
-0.15548097 0.2823689 -0.014818898 -0.010981449 0.14550899 0.26952967 0.12636417 0.4294865
-0.0730164 -0.23398459 -0.08186398 -0.1722751 -0.11196497 0.27923396 0.316581 -0.018178264
0.3445936 -0.01123017 0.4939975 0.1531275 -0.09287653 0.7521232 0.15381628 -0.0009836747
00000000: 5391 763e 2055 953d 3b98 21be c529 893e
00000010: dac2 9bbe e811 a9bc 9fa8 0fbe d148 583e
00000020: 09da dfbd 0247 9f3d 53c3 683d 6d14 8cbd
00000030: f00b 33be 0e23 2c3e 8892 adba bba9 cc3e
00000040: 0005 f93a 3edd b0bd 3c07 963e f81c 623e
00000050: e7c9 50bd 83c8 913d cc8f 533e f98d 97bc
00000060: 8758 9ebe 6763 ae3d 5848 e43d 5cd3 083f
00000070: 8c19 d3bd 62de 6abe 223c 45be f4ad 25be
00000080: 373c 673d 117a 9d3d 6202 a33e 6c8e db3d
00000090: df8f 833d 6770 d8bd e6d0 463e 24a5 c6bd
000000a0: 214c 203e 12a0 40be 8f30 9fbe d429 acbe
000000b0: 53fd 47be ef03 3f3f 9cd6 fabe 37aa c2be
000000c0: 1f60 99bd a666 b33d 0bcb 08be ce9f 0b3e
000000d0: b971 33be e222 d3bd c5d5 663d 863a 883e
000000e0: 8a8c af3d 5f08 7c3e 674f b8bd 7cf2 c53d
000000f0: dd63 65be 3de2 e23d 795e bfbd 4e8e 793e
00000100: 65cb 563e 88dd f9bd 9772 39be 49fd 1b3e
00000110: 553c 4fbf c0b2 1bbe 8efb c3be b96a 973e
00000120: 9cbe 8d3e 3e69 263d 5fb7 b9bd 5744 f6bd
00000130: b958 c0bd b6d1 e03d a5c4 973e b467 e13e
00000140: 8e9c 7ebe 4e20 60be 48a6 c0bd 484b 683e
00000150: 5ebc 3dbe 3013 86bc 34ea 4b3e 18cd 26bd
00000160: 00f6 78be c4e2 a6bd 949a f7bd 5eb5 603e
00000170: ea02 6bbe c036 b1bb 0a74 60be 8c38 63be
00000180: 9e46 513e 0e2b 703e 99bc 72be 8b37 7e3e
00000190: 3024 08bf 540f d7bd e693 e9bd 8931 873c
000001a0: 6736 1fbe a892 903e f7ca 72bc 89eb 33bc
000001b0: 4f00 153e cbff 893e 9c65 013e a8e5 db3e
000001c0: 9f89 95bd a899 6fbe 4da8 a7bd e268 30be
000001d0: e44d e5bd c1f7 8e3e e816 a23e 95ea 94bc
000001e0: 936e b03e bffe 37bc 3eed fc3e 75cd 1c3e
000001f0: 0d36 bebd 258b 403f 0482 1d3e a5ee 80ba

decoder.0.bias f4 [8]
0.30490294 -0.036283206 0.32581887 0.034723293 0.27189523 -0.033923328 0.06019656 0.038400464
00000000: 3d1c 9c3e b39d 14bd bbd1 a63e 033a 0e3d
00000010: da35 8b3e 30f3 0abd ab90 763d ce49 1d3d

decoder.2.weight f4 [2, 8, 1]
-0.0035595852 0.27591306 -0.24996562 0.17053892 0.0016784582 0.16310273 -0.42228377 0.1311843
0.21648616 -0.40214127 0.3164382 0.22833593 0.27584577 -0.13257182 -0.13961658 -0.078466386
00000000: ee47 69bb 7a44 8d3e fdf6 7fbe c1a1 2e3e
00000010: b6ff db3a 6704 273e 9435 d8be 2d55 063e
00000020: 8cae 5d3e 76e5 cdbe 3004 a23e e5d0 693e
00000030: a83b 8d3e e8c0 07be a6f7 0ebe fcb2 a0bd

decoder.2.bias f4 [2]
0.22797915 -0.5360843
00000000: 5e73 693e d23c 09bf
